gesture-detection-model/model/keypoint_classifier/keypoint_classifier.tflite (tflite, 6836 bytes, 6 tensors)

arith.constant f4 [10, 10]
000000 b1 24 39 bf 09 bd 87 bf 6c 52 c7 be a6 d5 bf 3d
       -0.7232161 -1.0604564 -0.3893007 0.09366922
000010 99 70 3a bf 24 c3 94 bf e6 75 82 be e5 75 86 bf
       -0.7282806 -1.1622052 -0.25480574 -1.0504729
000020 5c 8b a9 bf ea 5a 38 bf 62 54 4d be 6a d1 ac bf
       -1.3245654 -0.72013724 -0.2005172 -1.3501408
000030 1a 46 df be 21 35 3a be 62 5a 3e bf e0 27 d9 be
       -0.4360817 -0.1818433 -0.74356663 -0.42413235
000040 87 f0 63 bf 69 ee 93 bf 55 8c 85 bf da 5d 59 bf
       -0.8903889 -1.1557132 -1.0433451 -0.8490883
000050 99 21 17 bf 49 c0 56 bf f2 5e 29 bf 6d b6 10 bf
       -0.5903564 -0.83887154 -0.661605 -0.5652836
000060 65 10 86 be 44 87 05 bf 18 cc 70 bf f2 d9 5b bf
       -0.26184383 -0.52159524 -0.9406142 -0.85879433
000070 5d b7 8f bf 5d 3c ce be 3b a5 b4 3e 51 45 1f bb
       -1.1227833 -0.4028043 0.3528231 -0.002430279
000080 48 82 63 3f c1 46 0f 3e 21 df 8f 3e 50 fa 98 bf
       0.8887067 0.13991834 0.2809992 -1.1951389
000090 1b ea 12 3f 11 11 1a bf b8 9a 69 b9 7d 0a 8b 3e
       0.57388467 -0.6018229 -0.00022278249 0.2715644
0000a0 b8 96 77 3c c8 d8 0c 3f 71 db 00 3e 18 7c a0 bf
       0.015111618 0.5501828 0.1258371 -1.253787
0000b0 71 4b cf 3d 81 92 83 3f e6 3f 2e 3e e3 f8 ab bd
       0.10121811 1.0279084 0.17016563 -0.08397081
0000c0 0e ef 8d be 6f 56 b2 3e 04 b5 75 be cc b9 23 bf
       -0.27721447 0.3483157 -0.23994833 -0.6395538
0000d0 74 41 1e 3f e1 6a 15 be e1 79 fd 3e b8 e3 0c be
       0.61818624 -0.14591552 0.4950705 -0.13758743
0000e0 20 93 b0 be 2a 42 9a 3f 5d a1 23 bf 21 7d f6 be
       -0.34487247 1.2051442 -0.63918096 -0.4814234
0000f0 65 9e 3f 3f 43 86 0a 3f 6e 0d 20 3f b1 ad 58 3e
       0.74851066 0.5411112 0.6252049 0.21160008
000100 c8 0f aa bf 42 8f b8 be 42 ef 42 bf 59 61 86 be
       -1.3286066 -0.36046797 -0.7614633 -0.26246145
000110 29 6e 4b bf 91 18 1d 3f 4d bb 0c 3f 11 a3 12 3f
       -0.79464966 0.6136561 0.549733 0.5728007
000120 cb 6f 7f bf 56 09 c0 3e da 34 9b bf fd 82 92 3e
       -0.9977996 0.37507123 -1.2125504 0.2861556
000130 77 f9 e2 3d 84 5b 39 3e 7b 3c f6 3e b1 8f 7c bd
       0.11082738 0.18101317 0.48093018 -0.061660472
000140 de 70 e6 bf 88 a0 74 bf cd 7b 27 3f a6 b3 63 bf
       -1.8003194 -0.9555745 0.6542328 -0.88945997
000150 c8 26 50 bf 7e 2f 3e 3f 22 ad 5d 3e b0 9a b9 bd
       -0.81309175 0.7429122 0.21648076 -0.090627074
000160 db 8c ba bd 55 2e f2 3e 8d c5 15 bf 50 a2 66 3f
       -0.09108897 0.47300974 -0.58504564 0.9009142
000170 24 2f 2e 3e 33 3e 37 3f 36 e4 ed 3d e0 31 c0 3d
       0.1701017 0.71579283 0.116157934 0.09384513
000180 09 06 8a bd da 11 a4 be 14 e1 2b 3f 9a 93 d9 bf
       -0.06739432 -0.3204487 0.67140317 -1.699817

arith.constant1 f4 [10, 20]
000000 dc 6f 85 3f c0 df a4 be 03 9b 98 bc 20 05 77 3f
       1.0424762 -0.32201958 -0.018628603 0.96492195
000010 fc 0e 6c 3e 3f 3d 87 3e af 28 f9 3e 2c 81 21 be
       0.23052591 0.26413915 0.48663852 -0.15771931
000020 d3 91 fd bd 1c 1f 58 3e be 0d 82 3f 23 77 37 be
       -0.123813294 0.21105617 1.0160444 -0.17916541
000030 6b a1 94 3f 77 0b 49 3e 69 f9 b9 3d 8f 5a 5b 3f
       1.1611761 0.1963328 0.09080774 0.85685056
000040 57 39 a0 3d e1 c4 1e 3d ce 53 f7 3e 75 76 4a bf
       0.07823437 0.038761977 0.48306125 -0.79087
000050 77 24 24 3f 89 b4 a0 be a4 d4 56 bf ad e4 15 3f
       0.6411814 -0.31387737 -0.83918214 0.58552057
000060 6f 83 8d 3f 93 d5 47 bd 76 bd 11 3d 7d 79 76 bf
       1.1055735 -0.048787665 0.035581075 -0.96279126
000070 47 fe a0 bf d7 ad 49 3e f1 2f 9a bd 15 c3 0c bf
       -1.2577599 0.19695221 -0.07528675 -0.5498517
000080 95 7e 21 bd d8 d4 60 3f e9 31 5f bd 79 30 c6 3e
       -0.03942736 0.87824774 -0.054490957 0.38708857
000090 da 3c 38 3e 26 fd 83 3e 80 52 4e be df 28 14 3d
       0.17991963 0.25779074 -0.20148659 0.03617179
0000a0 b0 4d 26 3e 52 66 2c 3f c6 88 11 3f e9 24 17 3f
       0.16240573 0.6734363 0.56849325 0.59040695
0000b0 d7 30 19 3f e4 aa b2 3e 2e 83 db 3e f0 fc 4f 3f
       0.5984015 0.34896004 0.4287352 0.81245327
0000c0 32 86 86 3f b2 26 07 3e 7a 4b 0d 3f 5d 62 14 3f
       1.0509703 0.13198355 0.55193293 0.5796259
0000d0 22 90 65 3f 8b ea ac be db 92 20 3d 79 4c 80 3d
       0.89673054 -0.33772692 0.039202552 0.06264586
0000e0 4b ae 4c 3f 0c 30 c6 3e 61 76 5e 3d 47 52 25 3f
       0.7995345 0.38708532 0.054312114 0.6457867
0000f0 67 e4 9b be 1c 90 2e 3e 95 a0 3e 3e bb d3 2e 3f
       -0.30447695 0.17047161 0.18615945 0.68291825
000100 a6 d5 43 bd 90 28 82 bd d5 df b1 bc 05 05 7a 3e
       -0.047811173 -0.06355393 -0.021713177 0.24415977
000110 8e 08 99 bf cd 56 8d be 3f f5 00 3e 96 6f 10 3d
       -1.1955736 -0.27605286 0.12593554 0.035262667
000120 69 2f e3 bd 2a 3c 91 3e 04 a8 87 3d 19 4d 5f be
       -0.11093027 0.28366214 0.06623843 -0.21806754
000130 80 3c 39 be 3f ef 16 3d ac 20 19 bf 66 85 12 3f
       -0.18089485 0.036849257 -0.5981548 0.572348
000140 01 52 19 3e aa f7 8d be 6e 6c d6 3e d3 90 33 3e
       0.14972688 -0.27728015 0.418796 0.17535715
000150 dc 1e ce 3e 79 b7 7d 3f 8c 6f d6 3d 7f 51 97 3e
       0.4025792 0.9910808 0.10470495 0.29554364
000160 78 a2 29 3f 0f e1 30 bf b1 d0 80 3d 2a 8f ca bc
       0.6626353 -0.6909341 0.06289805 -0.02472647
000170 15 d0 5c bc f4 a5 e1 3d 87 37 9c 3f 50 da ff 3d
       -0.013477345 0.11017981 1.2204446 0.12492812
000180 61 3e 13 3f 89 fa 79 3f 80 1c 41 3c 92 24 74 3f
       0.5751706 0.9764791 0.01178658 0.953683
000190 ce cb 13 3e 8c 06 5b be 20 cb 91 3e 1c a2 a4 be
       0.14433214 -0.21389216 0.28475285 -0.3215493
0001a0 34 2a 2d 3f db 62 8d 3b a7 35 c8 3e ec ae 65 3e
       0.6764252 0.004314763 0.39103433 0.22430009
0001b0 ea fc d0 3d f3 12 6d 3f e1 5d e0 be d9 62 77 3d
       0.102044895 0.9260704 -0.43821624 0.060397003
0001c0 cd fd 8d bf ce b8 cd 3f 29 ca 28 3e 51 59 f8 3d
       -1.1093079 1.6072023 0.16483368 0.12126411
0001d0 ea b7 63 3f 15 70 6a 3d a6 d3 67 3e b8 36 02 3d
       0.88952506 0.057235796 0.22639331 0.031790465
0001e0 6e 03 19 3f 63 86 c4 3c 63 51 43 3f 41 59 b3 bd
       0.5977086 0.023989862 0.7629606 -0.08757258
0001f0 41 0c c7 be 4f 4e 01 3f 3b 63 4e bd 61 d5 f1 3e
       -0.38876536 0.50510114 -0.050387602 0.47233108
000200 d1 c5 9a 3e e9 2e a6 3e 9c e0 8e 3d 2f 29 41 3f
       0.30229047 0.32457665 0.069764346 0.75453466
000210 10 45 6c be b3 fe a4 3f f4 b2 9e 3e 55 4c f1 3e
       -0.2307322 1.2890228 0.30995905 0.4712855
000220 20 ce 2f bf 81 6f f9 3e 02 05 39 3f 87 c1 fa 3c
       -0.68673897 0.48717883 0.72273266 0.03060986
000230 60 05 96 be e9 41 c4 be 67 b4 b7 3e a1 a9 01 bf
       -0.29300976 -0.38331535 0.35879824 -0.5064946
000240 59 60 84 bf eb 16 32 bd 81 c6 42 3f b9 fd 35 3e
       -1.0341903 -0.043478888 0.7608414 0.17772569
000250 e6 00 8a 3d 11 b5 28 be 2f 8f 4e 3f b6 6e 3d be
       0.067384526 -0.16475321 0.8068723 -0.18499264
000260 7c 1e 57 bf 14 9b e1 3c 94 01 91 3d f5 b5 c1 bd
       -0.8403089 0.027539767 0.07080379 -0.09458534
000270 5c d5 26 3f 33 fd e3 3e 82 6e 49 bf 4c 9d 00 3f
       0.6516931 0.44529113 -0.78684247 0.50240016
000280 08 84 3e be 35 79 c9 be 86 37 8f bd a2 0c 8c 3e
       -0.18605053 -0.39350286 -0.06993012 0.27353388
000290 2c e4 4c 3f 92 b6 ac 3c f5 a8 1d be 6b d0 14 bf
       0.8003566 0.02108315 -0.15396483 -0.5813052
0002a0 00 44 ea b4 03 55 19 be 46 0e 1e bd 10 6d 90 3e
       -4.3635373e-07 -0.14973836 -0.03858783 0.28208208
0002b0 85 6f b1 bd c7 b4 ba 3f b5 7a d5 3e c8 01 a9 3c
       -0.08663849 1.4586419 0.4169518 0.020630732
0002c0 fc 82 3a bf d0 03 00 3f 04 c4 a2 bf ca f0 9d 3d
       -0.72856116 0.5000582 -1.2716069 0.077119425
0002d0 fd d2 4c 3f 66 a0 60 3f db d2 af 3e ef 04 e7 3d
       0.8000944 0.8774475 0.34340557 0.11280238
0002e0 83 4f b1 3d 9c 62 40 bf 50 fa 31 3f 5c b7 8b 3e
       0.08657744 -0.75150466 0.6952257 0.2728833
0002f0 25 1d be 3d 47 67 64 3f b4 cc a8 3e 93 3d 1b 3f
       0.09282903 0.8922009 0.32968676 0.6064083
000300 d4 04 2c 3f d9 30 94 3e d1 17 05 3e 6a 79 5a 3f
       0.6719487 0.28943518 0.12997366 0.85341513
000310 6f 25 10 3f a9 e2 d1 3d 5e e3 64 3f bb a8 4a be
       0.5630712 0.1024831 0.89409435 -0.19790928

arith.constant2 f4 [10]
000000 3b df 65 be 70 5d 88 be 51 43 99 be f7 f1 4c bf
       -0.22448437 -0.26633787 -0.2993417 -0.8005671
000010 98 53 83 bf 79 b4 d9 3e 05 9f 3b 3e f8 95 3c 3f
       -1.0259886 0.42520502 0.1832238 0.73666334
000020 fb 69 9e 3f 04 a7 bf 3e
       1.2376093 0.3743211

sequential_1/dense_1_2/BiasAdd/ReadVariableOp f4 [10]
000000 e4 6d cb 3e 19 e7 5a 3f ee 79 72 3e 2d 3d 4c 3f
       0.39732277 0.8550888 0.23679325 0.79780847
000010 c8 47 fc bd ad f1 28 3f 48 ca 4e be 6a 12 65 3f
       -0.12318379 0.6599377 -0.20194352 0.8948122
000020 0c 11 5f 3f db a4 09 3f
       0.87135386 0.53767174

sequential_1/dense_1/BiasAdd/ReadVariableOp f4 [20]
000000 9d 5f 5f bf 41 8e 52 3d 5f 2f 1b bf a9 13 fc be
       -0.8725527 0.051405195 -0.6061916 -0.4923375
000010 a1 2d 03 3f 7a 7c 44 bf e6 0b 1c bf e0 75 aa bd
       0.512415 -0.76752436 -0.60955656 -0.08323264
000020 50 84 32 bf a9 5f 8e 3e 2a 6a 5f bf 74 47 46 be
       -0.6973314 0.27807358 -0.8727137 -0.19363195
000030 2c 49 1d bf 58 8f f4 bd 4a 2b 13 be 8a a0 74 bf
       -0.61439776 -0.11941403 -0.14371982 -0.95557463
000040 7b df ed be 77 2e dd be 22 83 b9 be 1c c6 e5 be
       -0.46459565 -0.43199512 -0.3623286 -0.44877708

sequential_1/dense_1/MatMul f4 [20, 42]
000000 b6 2a 67 be ec 3d 4e 3e 97 a8 d5 3c a1 d2 67 3f
       -0.22574887 0.20140809 0.026081366 0.9055577
000010 0a e7 aa bb 2c 70 09 3f f5 e8 39 3e d8 52 93 3e
       -0.0052155303 0.53686786 0.18155272 0.28774142
000020 7b cb a4 3e b6 0a 90 3e 25 23 2f be 87 1a 60 be
       0.32186493 0.28133172 -0.1710325 -0.2188512
000030 cf 96 87 bd 8b b8 0d be de c3 89 3d db ef 23 3e
       -0.06620561 -0.13839929 0.06726812 0.16009466
000040 05 a7 3d bb 16 70 83 3e 7c c3 09 be f1 f1 73 be
       -0.0028938663 0.25671452 -0.13453478 -0.23822762
000050 85 1a 60 bd a2 cc 46 be b9 fc a6 bd 04 9c aa be
       -0.05471279 -0.19413999 -0.08153672 -0.33322155
000060 f8 e3 26 3d 8d 62 ba be 4f 37 b8 bd 02 b8 4c be
       0.04074475 -0.36403313 -0.08994924 -0.19992068
000070 7e 54 6f bd 0c 00 8a be c9 16 51 be 0c 71 0d bf
       -0.058430187 -0.2695316 -0.20418848 -0.5525062
000080 5c c2 ec bd 43 c5 ac be 80 32 68 3d ba 4b b2 be
       -0.115605086 -0.3374425 0.056688786 -0.348234
000090 f1 92 f7 3d 8e 3c 8a be 1f b5 14 bd b7 85 f6 be
       0.12088574 -0.26999325 -0.036305543 -0.4814889
0000a0 5f cd 41 3e 19 df d0 be 9c 7c 18 3e 9d ac 85 be
       0.18925999 -0.4079521 0.14891285 -0.26108256
0000b0 bd 5a 35 3f 3b 23 52 3d 97 c1 81 3e 7b 3e 98 3e
       0.7084158 0.05130313 0.2534301 0.2973517
0000c0 8f 86 b2 3e d5 22 97 3e a7 c5 eb 3d 3a 02 91 3e
       0.34868285 0.29518762 0.115123086 0.2832201
0000d0 2a 5f 05 be b8 27 ce be 95 1d 81 3d 8a 54 0c be
       -0.13024583 -0.40264678 0.063044704 -0.13704124
0000e0 96 38 e4 3e 8d d2 98 3e 1c da a3 3d 71 f6 b5 3e
       0.44574422 0.29848137 0.080005854 0.35539582
0000f0 df 58 84 bd 3f 38 55 be a8 85 4f 3e 3d e8 33 bd
       -0.06462263 -0.20822237 0.2026583 -0.04392265
000100 a4 1f 8e 3c 88 76 18 3f 81 5d 3d 3e e0 af 27 3f
       0.017349072 0.59555864 0.184927 0.6550274
000110 d7 bb 18 be 93 c4 b3 be d7 8d 34 3e 8a 53 91 3d
       -0.14915405 -0.35110912 0.17632233 0.07096012
000120 f0 ce bb 3d f9 d1 09 3f 22 17 58 3d e9 73 e6 3e
       0.091703296 0.5383602 0.052756436 0.45010307
000130 b9 3a 1d bd c7 0c 8c be b1 2e b4 3d e2 55 8d 3e
       -0.03838608 -0.27353498 0.08797968 0.27604586
000140 02 2b 1e bd a1 b3 03 3f 6a e9 15 3e 8b 5b fb 3e
       -0.038615234 0.51445967 0.14639822 0.4909328
000150 48 be 54 3d d8 55 b6 3d 4d a2 c3 3e 18 20 7b bf
       0.05193928 0.08903092 0.38209763 -0.98095846
000160 41 69 65 3e db 0e 13 bf 40 d0 25 bd c6 0b e5 be
       0.22403432 -0.5744454 -0.040481806 -0.44735545
000170 54 d6 4f be c1 bb 94 be d9 73 a8 3c e2 2d 82 3e
       -0.20296603 -0.29049495 0.020563053 0.2542563
000180 29 39 67 3d 82 73 3f 3e 98 07 e7 3d 14 7c f9 3d
       0.056450997 0.18696406 0.11280745 0.12181869
000190 61 e9 f2 bd 85 c7 95 3d 1b 30 25 3e 6d 14 88 3e
       -0.1186092 0.07313446 0.16131632 0.26578084
0001a0 b8 70 cb 3e f0 76 5b 3e bd 70 83 3e 28 b0 56 bd
       0.39734435 0.2143209 0.2567195 -0.05241409
0001b0 04 c9 8c 3e 70 cb 00 be 40 b9 f3 3e a8 8b 95 3e
       0.27497113 -0.12577605 0.47602272 0.29208112
0001c0 16 ed b9 3e 33 6e 8a 3e cd f9 1a 3f 2d 34 4e bb
       0.36313695 0.270372 0.60537416 -0.0031464205
0001d0 13 f0 08 3f b3 3e ac bc cd b4 f8 3e a9 49 a1 3e
       0.53491324 -0.021025991 0.4857544 0.3150151
0001e0 53 df 14 3f ee 2c 6a 3e 28 21 26 3f 8f fb d2 3d
       0.58153266 0.22868702 0.6489434 0.10301887
0001f0 91 fd 27 3f 5e 07 62 3d bd 7d 9c be 48 31 0a 3d
       0.65621287 0.055182807 -0.3056468 0.033738405
000200 65 e4 8f be 2e b3 12 3e fe 79 4e be e0 0a 22 3e
       -0.2810394 0.14326164 -0.20163724 0.15824461
000210 a7 c5 10 be 9b 72 02 3e 04 aa e1 39 05 60 05 3e
       -0.14137898 0.12739031 0.00043042016 0.1302491
000220 2f 23 18 bd 2b 60 38 be 92 18 eb bc c7 b2 1c be
       -0.03714293 -0.18005435 -0.02869824 -0.15302573
000230 e6 4c df bc 11 52 8b 3e 3b cb a5 bd 09 ca 8e 3e
       -0.027258348 0.2721105 -0.08095404 0.27888516
000240 83 7a ba bd 21 e6 d9 be 25 32 39 bd 35 44 6f bc
       -0.091053985 -0.42558387 -0.045213837 -0.014603664
000250 e8 b0 7a 3c 1f dc 8b 3e 7b dd d1 3d 5f 41 a7 3e
       0.015300967 0.27316377 0.10247322 0.32667062
000260 70 82 08 be 77 b7 5a bf 9a 6d 97 bd b2 c3 73 be
       -0.13331008 -0.85436195 -0.07393952 -0.2380512
000270 4a 75 2d bc 12 c6 90 3e 69 16 b6 3d 7c 10 9a 3e
       -0.010587046 0.28276116 0.08890993 0.30090702
000280 dc 49 36 be 63 43 89 bf f5 b7 d6 bd 3a 66 9d be
       -0.17801613 -1.072369 -0.10484306 -0.30742055
000290 75 9e 3d bd 62 07 8f 3e e1 c8 2a bd a3 39 96 3e
       -0.046293695 0.2793532 -0.04169548 0.29340848
0002a0 82 5c 32 3e 19 6a 45 be 66 f1 83 3e 96 13 da 3e
       0.17418101 -0.19278754 0.2577011 0.42593068
0002b0 53 25 20 3e 70 44 b5 3e 15 5d 1a 3e 4a 9e 8c 3e
       0.15639238 0.35403776 0.1507457 0.27464515
0002c0 5c ad f8 3d e1 3a 60 3e 77 94 d2 3d b1 1a 9c 3e
       0.12142441 0.2189746 0.10282224 0.30489114
0002d0 02 53 a7 3c b1 eb 84 3e 6a 44 22 be 85 d1 f6 3d
       0.020425323 0.25961068 -0.1584641 0.120516814
0002e0 a7 a6 80 bf 9c 93 1a 3d 56 ff 9a 3d 39 47 91 3e
       -1.0050858 0.037738428 0.07568233 0.2837465
0002f0 af d1 5f 3d 61 3c c5 3e 1f ab ca 3d 14 18 fb bc
       0.05464333 0.38522628 0.0989592 -0.03065113
000300 b2 8b 17 3e 69 e9 3d bf 7b 3f 9f bc 43 bb 8c 3e
       0.14799383 -0.7418428 -0.01943945 0.2748662
000310 f6 6c 12 3d 7f b8 a9 3e ca 50 ab 3d 18 09 1b be
       0.035748444 0.33148572 0.08365019 -0.15140188
000320 ef 8d bf 3d 24 da 41 bf 73 23 48 bd f7 cd 94 3e
       0.093532436 -0.7572348 -0.048861932 0.2906339
000330 c7 83 d0 3c 7e 05 b8 3e 59 56 0b 3d da d9 4d be
       0.025453461 0.3594169 0.034017894 -0.20102635
000340 18 eb 6e bc a5 b3 72 bf 5a 3d 56 be e2 95 0e 3e
       -0.014582418 -0.94805366 -0.20921841 0.13924363
000350 e6 6c 4d bf 15 d7 ee be 86 61 e5 be 59 93 83 be
       -0.8024429 -0.4664847 -0.44800967 -0.25698355
000360 e4 6c 94 be 74 dd 15 be d3 e1 6f be 7d 8b fe bd
       -0.28989327 -0.14635259 -0.23425989 -0.12428949
000370 77 1d 09 3d 1d e6 d0 3d a9 2f b5 bd 0f f1 01 3e
       0.033475365 0.102001406 -0.08846981 0.12689613
000380 b2 a7 13 3e 61 d3 a6 3e f7 a0 5b 3e 6a c6 b4 3e
       0.1441944 0.32583144 0.21448122 0.35307628
000390 21 20 bd bc b3 8b e1 3c 63 be 63 be 55 c8 e8 3d
       -0.02308661 0.027532434 -0.22240596 0.11366335
0003a0 1d 6f 14 be 72 99 6e 3c 3d b4 1f be eb a8 65 3e
       -0.14495511 0.014562951 -0.15596099 0.22427718
0003b0 bf 7c 26 be 3a eb 8f 3d af 24 b4 be 84 90 34 bc
       -0.16258524 0.07027288 -0.35184237 -0.011020783
0003c0 6c 14 d6 be 7a 7a 0b bd 34 29 b7 be 01 7a 8a 3e
       -0.41812456 -0.03405235 -0.35773623 0.27046207
0003d0 19 73 e1 be 29 28 dd bd cb b1 28 bf 00 9b b6 3d
       -0.44033125 -0.107986756 -0.6589629 0.08916283
0003e0 62 38 00 bf 74 27 bc 3d b0 a9 04 bf e2 f4 0c be
       -0.50086033 0.091872126 -0.5182142 -0.1376529
0003f0 f0 70 4c bd b8 73 6f bd 2c 00 86 be 01 22 db be
       -0.049912393 -0.058459967 -0.26172006 -0.4279938
